…
    "vae.compile(optimizer='rmsprop', loss = vae_loss,  metrics = [vae_r_loss, vae_kl_loss])\n",
    "\n",
    "\n"
   ]
  },
  {
   "cell_type": "code",
   "execution_count": 11,
   "metadata": {},
   "outputs": [
    {
     "name": "stdout",
     "output_type": "stream",
     "text": [
      "__________________________________________________________________________________________________\n",
      "Layer (type)                    Output Shape         Param #     Connected to                     \n",
      "==================================================================================================\n",
      "input_1 (InputLayer)            (None, 64, 64, 3)    0                                            \n",
      "__________________________________________________________________________________________________\n",
      "conv2d_1 (Conv2D)               (None, 31, 31, 32)   1568        input_1[0][0]                    \n",
      "__________________________________________________________________________________________________\n",
      "conv2d_2 (Conv2D)               (None, 14, 14, 64)   32832       conv2d_1[0][0]                   \n",
      "__________________________________________________________________________________________________\n",
      "conv2d_3 (Conv2D)               (None, 6, 6, 64)     65600       conv2d_2[0][0]                   \n",
      "__________________________________________________________________________________________________\n",
      "conv2d_4 (Conv2D)               (None, 2, 2, 128)    131200      conv2d_3[0][0]                   \n",
      "__________________________________________________________________________________________________\n",
      "flatten_1 (Flatten)             (None, 512)          0           conv2d_4[0][0]                   \n",
      "__________________________________________________________________________________________________\n",
      "dense_1 (Dense)                 (None, 32)           16416       flatten_1[0][0]                  \n",
      "__________________________________________________________________________________________________\n",
      "dense_2 (Dense)                 (None, 32)           16416       flatten_1[0][0]                  \n",
      "__________________________________________________________________________________________________\n",
      "lambda_1 (Lambda)               (None, 32)           0           dense_1[0][0]                    \n",
      "                                                                 dense_2[0][0]                    \n",
      "__________________________________________________________________________________________________\n",
      "dense_3 (Dense)                 (None, 1024)         33792       lambda_1[0][0]                   \n",
      "__________________________________________________________________________________________________\n",
      "reshape_1 (Reshape)             (None, 1, 1, 1024)   0           dense_3[0][0]                    \n",
      "__________________________________________________________________________________________________\n",
      "conv2d_transpose_1 (Conv2DTrans (None, 5, 5, 64)     1638464     reshape_1[0][0]                  \n",
      "__________________________________________________________________________________________________\n",
      "conv2d_transpose_2 (Conv2DTrans (None, 13, 13, 64)   102464      conv2d_transpose_1[0][0]         \n",
      "__________________________________________________________________________________________________\n",
      "conv2d_transpose_3 (Conv2DTrans (None, 30, 30, 32)   73760       conv2d_transpose_2[0][0]         \n",
      "__________________________________________________________________________________________________\n",
      "conv2d_transpose_4 (Conv2DTrans (None, 64, 64, 3)    3459        conv2d_transpose_3[0][0]         \n",
      "==================================================================================================\n",
      "Total params: 2,115,971\n",
      "Trainable params: 2,115,971\n",
      "Non-trainable params: 0\n",
      "__________________________________________________________________________________________________\n"
     ]
    }
   ],
   "source": [
    "vae.summary()"
   ]
  },
  {
   "cell_type": "code",
   "execution_count": 12,
   "metadata": {},
   "outputs": [
    {
     "name": "stdout",
     "output_type": "stream",
     "text": [
      "_________________________________________________________________\n",
      "Layer (type)                 Output Shape              Param #   \n",
      "=================================================================\n",
      "input_2 (InputLayer)         (None, 32)                0         \n",
      "_________________________________________________________________\n",
      "dense_3 (Dense)              (None, 1024)              33792     \n",
      "_________________________________________________________________\n",
      "reshape_1 (Reshape)          (None, 1, 1, 1024)        0         \n",
      "_________________________________________________________________\n",
      "conv2d_transpose_1 (Conv2DTr (None, 5, 5, 64)          1638464   \n",
      "_________________________________________________________________\n",
      "conv2d_transpose_2 (Conv2DTr (None, 13, 13, 64)        102464    \n",
      "_________________________________________________________________\n",
      "conv2d_transpose_3 (Conv2DTr (None, 30, 30, 32)        73760     \n",
      "_________________________________________________________________\n",
      "conv2d_transpose_4 (Conv2DTr (None, 64, 64, 3)         3459      \n",
      "=================================================================\n",
      "Total params: 1,851,939\n",
      "Trainable params: 1,851,939\n",
      "Non-trainable params: 0\n",
      "_________________________________________________________________\n"
     ]
    }
   ],
   "source": [
    "vae_decoder.summary()"
   ]
  },
  {
   "cell_type": "code",
   "execution_count": 13,
   "metadata": {},
…
